glaucoma_model.onnx (onnx, 513162 bytes, 24 tensors)

blocks.0.0.se.conv_reduce.bias f4 [8]
000000 0f ec 9b bf a7 2f 02 be ba 5f 9f bf e7 75 8c bf
       -1.2181414 -0.1271349 -1.2451088 -1.0973481
000010 ee ef df bf 30 ec e7 bf 1b bb c5 bf 16 a1 36 bf
       -1.7495096 -1.8118954 -1.5447725 -0.7133955

blocks.0.0.se.conv_expand.bias f4 [32]
000000 79 9a e9 3f 76 2f 82 40 3b ad 0a bf 82 ab fa bd
       1.8250266 4.0682936 -0.5417058 -0.12239744
000010 1d 27 60 40 11 87 93 3f ae be 5c 3f 60 06 57 bf
       3.5023873 1.1525594 0.86228454 -0.839941
000020 6d c0 2e 40 04 dc 94 3f e2 9c fc 3e 7f 84 e5 bd
       2.7304947 1.1629643 0.49338442 -0.11206912
000030 e3 5f 2a 3f 62 f4 fb be ac c7 27 40 93 e4 35 3f
       0.6655256 -0.49209887 2.621562 0.710519
000040 35 16 06 3f 7a d3 c5 3e a5 52 40 bf 82 46 01 c0
       0.52377635 0.38637906 -0.75126106 -2.0199285
000050 06 22 d2 3f a8 f4 6a 3f 8d 9e a4 bf 2c 91 22 40
       1.6416633 0.91779566 -1.2860886 2.5401106
000060 e0 10 c3 bf 61 f0 69 bf 89 d0 1e 40 5a f4 74 40
       -1.5239525 -0.91382414 2.481478 3.827414
000070 40 0a 02 3b 98 8c 9b bf 68 a0 88 40 7b 1f 08 c0
       0.0019842535 -1.2152281 4.269581 -2.1269214

blocks.1.0.se.conv_reduce.bias f4 [4]
000000 a1 43 f8 3e 64 ab f0 3f b3 bd d2 bc e8 0e 1f be
       0.48489097 1.8802304 -0.025725221 -0.1553303

blocks.1.1.se.conv_reduce.bias f4 [6]
000000 fb 49 d2 be c2 b7 3a bf 54 21 17 40 19 a4 bf 3f
       -0.41072068 -0.7293664 2.3614092 1.4971954
000010 66 2e 27 40 51 e5 a0 3f
       2.612207 1.2569982

blocks.2.0.se.conv_reduce.bias f4 [6]
000000 5e 88 c8 3f 6d e2 37 3f bf a1 9b 3e 97 9a 61 3e
       1.5666616 0.71829873 0.3039684 0.22031628
000010 8c 78 69 3f de 8d 8d 3f
       0.91199565 1.105892

blocks.2.1.se.conv_reduce.bias f4 [10]
000000 57 32 86 3f be e6 81 3f a8 21 1f 40 b0 cc 8b bd
       1.0484113 1.0148542 2.4864292 -0.068261504
000010 9f a2 d6 3f 9a 67 b5 3f d7 28 72 3f 50 f4 87 3f
       1.6768378 1.4172242 0.94593567 1.0621433
000020 96 b3 92 3f bb 65 85 3f
       1.1461055 1.0421671

blocks.3.0.se.conv_reduce.bias f4 [10]
000000 43 8e 8a be 03 8b b0 be e8 64 6a be a9 e3 ce be
       -0.27061662 -0.34481058 -0.22890055 -0.40408066
000010 46 0a 4a 3e 00 a2 b2 3e b9 11 5d be bb 4e a9 3e
       0.19730482 0.3488922 -0.21588792 0.3306788
000020 bf 91 5d 3e ae 72 e2 bc
       0.21637629 -0.027642574

blocks.3.1.se.conv_reduce.bias f4 [20]
000000 fc 0e 5b 3f 0b 7f e1 3f 7d 58 56 3f 2e fd dd 3e
       0.8556974 1.7616895 0.8372877 0.43357223
000010 05 b8 fd 3f 3d e3 62 3f 30 a5 f8 bd 70 85 0d 3f
       1.9821783 0.8862799 -0.12140882 0.55281734
000020 12 2a 21 3f 03 70 25 3f ca 0e 8b 3f ab cf 89 be
       0.6295482 0.6462404 1.0863888 -0.2691625
000030 9a ae ad 3f 64 63 c4 3f 12 fd 33 3f c3 9a b8 3f
       1.3568909 1.5342832 0.7030803 1.442223
000040 11 55 dd 3f 19 d2 9c 3f 66 ac 2d 3f 77 2e 85 3f
       1.7291585 1.2251617 0.67841184 1.0404805

blocks.3.2.se.conv_reduce.bias f4 [20]
000000 9d ca 02 40 b4 88 95 3f 1b a8 f9 3e 3c 50 9e 3f
       2.0436165 1.1682343 0.48761067 1.2368236
000010 24 c8 c6 3c 96 f1 44 3f ff 5c 65 3f c8 4c 8f 3f
       0.024265356 0.7693113 0.89595026 1.1195307
000020 b0 b3 37 3f a7 73 b3 3e 37 0c 80 3f 28 73 b0 3f
       0.71758556 0.35049173 1.0003728 1.3785143
000030 2c cf ba 3f 83 6f 89 3f 6d e4 60 3f 3e 2b 12 3f
       1.4594474 1.0737156 0.8784855 0.5709723
000040 b2 e4 60 3f 21 ba 5d 3f b6 c5 36 3f 28 ed f3 3e
       0.8784896 0.86612135 0.7139543 0.47641873

blocks.4.0.se.conv_reduce.bias f4 [20]
000000 18 ea 44 3f a3 a9 09 3f 9c b8 f1 3f 31 4a 9a 3f
       0.769197 0.5377447 1.8884463 1.2053891
000010 06 8c bc 3f 7b e9 4b 3f aa ba c8 3f 14 41 37 3f
       1.4730232 0.7965314 1.5681965 0.71583676
000020 8b dc b2 3f f1 bd f9 3d bc 3f e2 3f 2f ea 6f be
       1.3973554 0.121944316 1.76757 -0.23429178
000030 32 42 89 bf 08 24 69 3f 86 bc 01 40 85 70 db 3f
       -1.0723326 0.91070604 2.0271316 1.7143713
000040 79 b1 33 3f fe a7 5e 3f 69 44 95 3f b6 78 ba 3f
       0.70192677 0.86975086 1.1661502 1.4568088

blocks.4.1.se.conv_reduce.bias f4 [28]
000000 22 06 4b 3f f6 76 2e 3f 5e 17 84 3f bf 02 97 3f
       0.7930623 0.6815027 1.0319631 1.1797713
000010 24 2d cc 3f 75 48 86 3f a0 15 80 3f ea aa 74 3f
       1.5951276 1.0490862 1.00066 0.95573294
000020 6a 70 75 3e a7 62 9a 3f fa 49 82 3e 2c 86 1a 3f
       0.23968664 1.2061356 0.25447065 0.6036098
000030 90 ca 58 3f 7c 65 4e 3f a4 73 9b 3f 8f c9 0a 3f
       0.84684086 0.806236 1.2144666 0.54213804
000040 b4 fa ff 3e be 6f c1 3f 70 db 59 3f 6d 0c 92 3f
       0.4999596 1.5112226 0.8510046 1.1410042
000050 7a af 2d 3f 87 0e 9e 3f 90 73 a4 3f 51 24 9c 3e
       0.6784588 1.2348183 1.2847767 0.30496457
000060 16 db 75 3f af 41 95 3f 10 e6 2e 3f 6f 33 9b 3f
       0.96037424 1.166067 0.683198 1.2125071

blocks.4.2.se.conv_reduce.bias f4 [28]
000000 ab 21 19 3f 8d a6 67 3f 86 9d f0 3e 11 24 3c 3f
       0.59817 0.9048851 0.4699518 0.7349253
000010 d2 71 0b 3f 50 4e 0b 3f f6 01 54 3f cb 62 f0 3e
       0.5447055 0.5441637 0.8281549 0.46950373
000020 0c 26 d8 3e 86 14 52 3f b4 75 40 3f b5 b5 65 3f
       0.42216527 0.82062566 0.751796 0.8973039
000030 2d 20 d0 3e a2 80 2b 3f f1 42 5d 3f c9 84 19 3f
       0.40649548 0.66993153 0.8643027 0.5996824
000040 26 a2 43 3f 5c f6 fe 3e 34 d2 86 3f 3e 76 33 3f
       0.76419294 0.49797332 1.0532899 0.701023
000050 65 9b ce 3f 63 59 4a 3f 22 50 9c 3f 43 c2 ee 3e
       1.6141173 0.79042643 1.2211955 0.46632585
000060 06 0a 63 3e 82 c7 99 3f b1 9e 36 3f 7c a1 8a 3e
       0.22171792 1.201401 0.71335894 0.27076328

blocks.5.0.se.conv_reduce.bias f4 [28]
000000 cd ad 24 3f 0e 0d cd 3f c8 8b d9 3e a5 31 11 40
       0.643277 1.6019609 0.42489457 2.268655
000010 6e 6a 4c 3f 50 d8 74 3f 33 bc 29 3f 5b bc 16 3e
       0.798499 0.95642567 0.66302794 0.1472029
000020 6a 9f a5 3f 52 a4 44 3f aa d6 99 3f 7a d0 27 3f
       1.2939274 0.7681323 1.2018635 0.65552485
000030 ac 9a 0f 40 66 32 f1 3f 84 05 00 40 68 d5 cd bc
       2.2438154 1.8843505 2.0003366 -0.025126174
000040 d5 e9 9c 3f 46 d2 c3 3e 26 32 38 3f 34 06 02 3e
       1.225886 0.38246363 0.7195152 0.12697679
000050 4d f5 6f 3e f1 f9 3e 3f 63 4d 3b 3f 3b c3 00 40
       0.23433419 0.7460013 0.7316496 2.011916
000060 3e bd 59 3d e1 30 9f be 3b 84 0b 3f ff e5 d4 bf
       0.05315899 -0.3109198 0.5449864 -1.6632689

blocks.5.1.se.conv_reduce.bias f4 [48]
000000 06 c3 0c 3f 6d e0 8d 3e f2 2d 0b bd 1f 20 d4 3d
       0.5498508 0.27710286 -0.033979364 0.10357689
000010 06 86 0b 3e f1 a2 48 be 74 5e 8f bd a9 da e1 bd
       0.13625345 -0.19593407 -0.070004374 -0.11028034
000020 bf 3f 27 3f 64 23 11 bf 54 b6 1e 3c 77 2c b1 be
       0.65331644 -0.56694627 0.009687025 -0.34604236
000030 30 71 4a 3f 0f 43 f5 be c2 4e 02 3e d8 4a db bd
       0.7907896 -0.47902724 0.12725356 -0.10707635
000040 ad 0e 35 3f cb 71 3a 3e 47 f9 9e 3e 87 ca 4c 3e
       0.7072552 0.18207471 0.3104956 0.19999133
000050 97 03 c6 3d 10 bd 0e 3f 00 56 d9 bd f6 3d b6 bc
       0.096686535 0.55757236 -0.10612106 -0.022246342
000060 6e b5 04 3f 5a db 0b 3f 45 ee 1d be 5d a8 e1 3c
       0.5183934 0.5463158 -0.15422924 0.027546102
000070 5a 4c 89 3f d2 31 23 3d 43 7e 15 3e 3f b0 ef 3e
       1.0726426 0.039842434 0.14598946 0.46814153
000080 bc 68 16 3f 64 1e 5a 3e 39 e8 2e 3f 1f 64 c8 3e
       0.5875356 0.21300656 0.68323094 0.39138886
000090 f1 94 7e 3e 39 a8 1b bd f0 7b 23 3e 9f 36 01 3f
       0.24861504 -0.038002227 0.15965247 0.5047397
0000a0 38 7a 8c 3f 95 07 81 3e ed d3 2e 3e bd 4f 5e be
       1.0974798 0.25201097 0.17073031 -0.21710105
0000b0 71 bd c9 3c 68 f5 00 3f ff b7 b9 be bd 42 01 3f
       0.024626466 0.5037446 -0.3627319 0.5049246

blocks.5.2.se.conv_reduce.bias f4 [48]
000000 06 0a 31 bf e6 66 de 3f 98 ff e0 3e 9a 7f 3d 3e
       -0.6915592 1.7375152 0.43945003 0.18505707
000010 ea de 68 be 9d d9 22 3e 36 38 02 3f 63 85 b8 3b
       -0.22741285 0.15903325 0.5086702 0.0056311353
000020 8b d7 26 3e bd 3f b7 3e c4 fa e8 3e 79 4e aa 3e
       0.1629316 0.35790816 0.4550382 0.33262995
000030 19 8a 73 3f 5c a5 ea be 7e 08 6f 3e 8f bd 49 3f
       0.95132595 -0.45829284 0.23343083 0.7880487
000040 a3 ab 69 3f 16 b4 c9 be 1f 26 27 3f 77 8c b0 39
       0.9127752 -0.39395207 0.65292543 0.0003367399
000050 cc 87 dd 3e 6e f7 c0 3e be 51 3e 3e 28 e9 73 3f
       0.43267667 0.37688774 0.1858587 0.95277643
000060 18 f5 6d 3e ce 0c 04 be 83 ac b1 3e a0 c0 5d 3f
       0.23238027 -0.1289551 0.34701928 0.8662205
000070 db ff 15 3f cd 33 ff be 85 0f 48 3f ef 26 aa 3e
       0.5859353 -0.49844208 0.7814868 0.3323283
000080 34 96 11 3f e2 79 25 3f ce 41 e0 3e 7a 53 6b 3e
       0.56869817 0.64639103 0.43800205 0.22981063
000090 e9 5a 12 3e de 3c 96 3e 3d 39 19 3f a6 35 4e be
       0.14292492 0.29343313 0.59852964 -0.20137653
0000a0 3c f8 35 3f d8 88 91 bd ea ba 80 3f 16 7f a1 3e
       0.710819 -0.07106179 1.0057042 0.3154227
0000b0 a1 fe ef 3e 91 f6 76 be 01 d5 71 3e 20 f1 4b 3f
       0.46873954 -0.24117495 0.23616411 0.796648

blocks.5.3.se.conv_reduce.bias f4 [48]
000000 77 9a ee 3f 8a ca 68 3d 38 2e 33 3e 00 75 d9 bd
       1.8640889 0.05683378 0.174981 -0.10618019
000010 82 36 14 3b 3a b7 81 be 9f d5 44 3f e0 ab 55 3e
       0.0022615497 -0.25335103 0.7688846 0.20866346
000020 df 83 ad 3f a2 ff d4 3e 35 4e a6 be be 4d 40 bc
       1.3555869 0.41601282 -0.32481542 -0.011737285
000030 09 72 c7 3f 80 2c e4 be 03 bf cf 3c f3 35 08 40
       1.5581676 -0.445652 0.025359636 2.1282928
000040 49 02 6c 3e ca 2d 5d 3e 38 d0 66 3f f0 31 90 3f
       0.23047747 0.21599498 0.90161467 1.126524
000050 78 a4 07 bd 50 1a 81 3e 93 c1 cb 3f 53 1c d4 3d
       -0.033115834 0.25215387 1.5918449 0.10356965
000060 ee 8d 00 3f 03 f2 9a 3f f1 4e f5 3c 79 da da be
       0.5021657 1.2105106 0.029944869 -0.42744806
000070 55 e0 29 be 65 ed f3 3d d5 46 83 3e d3 e4 0a 3f
       -0.16589482 0.11910514 0.25639978 0.5425541
000080 1d 4a 3a 3e 5f 2c 05 3f 22 0e d1 3d 0a 9f 59 3e
       0.18192334 0.5202083 0.10207774 0.21252075
000090 c3 50 c2 3f 63 40 92 3e 07 3d 51 3e ad 94 19 be
       1.5180897 0.28564748 0.20433436 -0.14998122
0000a0 71 ef 24 3f 68 cf 9d 3e f9 f9 04 3e a4 cf 58 bd
       0.6442786 0.308223 0.12985982 -0.052932397
0000b0 57 1e 6f 3e ab 64 3e 3e ec 35 57 bc 6d 32 1e be
       0.23351417 0.1859309 -0.013135415 -0.15448923

blocks.6.0.se.conv_reduce.bias f4 [48]
000000 73 bb b5 be 5f 73 97 bf 1f 70 54 bf f6 7e 46 bf
       -0.35494575 -1.1832083 -0.82983583 -0.77537477
000010 0f 37 83 bf dc 30 d7 bf 58 c3 2c bf 6d 45 92 bf
       -1.0251178 -1.6811786 -0.6748557 -1.1427437
000020 5d 8c 0a c0 2a b5 9b bf d2 01 89 bf 16 33 bb be
       -2.164817 -1.2164662 -1.070368 -0.36562413
000030 92 62 5d bf 17 e0 33 bf 4d 0e 23 bf 20 7e 37 bf
       -0.8647853 -0.7026381 -0.63693696 -0.71676826
000040 57 2b 0a bd a7 3b 27 40 90 e4 bf bf cc 7b 22 bf
       -0.03373274 2.613016 -1.4991627 -0.6347015
000050 0c d0 de be df b1 6d bd 99 a1 8c bf 5f 9f 44 bf
       -0.43518102 -0.05803096 -1.0986816 -0.7680568
000060 09 53 9d be f7 51 6c bf 26 bd 0f c0 7a 4d 7b bf
       -0.30727413 -0.9231257 -2.2459197 -0.98165095
000070 33 37 34 bf 0a 9e cd be 70 d8 67 bf d9 be d3 be
       -0.7039673 -0.40159637 -0.9056463 -0.41356543
000080 ea a7 8e be bf 7b 08 c0 fd b7 b9 bf cb ac 8c bf
       -0.27862483 -2.1325529 -1.4509274 -1.0990232
000090 e1 f4 9e bf 5f e5 35 bf 82 19 7d bf 7b ed 48 bf
       -1.2418481 -0.7105312 -0.98867047 -0.78487366
0000a0 32 e7 e7 be c3 33 fe be aa 65 45 3f 9f 5f 06 be
       -0.45293576 -0.49648866 0.7710825 -0.13122414
0000b0 87 f4 97 bf 63 98 ea be 5f 9e ce bf c2 f4 69 bf
       -1.1871499 -0.45819387 -1.6142081 -0.91389096

conv_stem.weight_bias f4 [32]
000000 8a ee 15 40 7f 46 0f 40 95 d0 26 40 a5 2b 28 3f
       2.3426843 2.2386777 2.6064808 0.65691596
000010 bc f9 3d 40 7b cc 03 40 ac da 11 c0 8e d6 d2 40
       2.9683676 2.0593555 -2.2789717 6.5886908
000020 9e 33 9e 40 14 63 c2 c0 6a e8 03 c1 48 79 17 40
       4.943801 -6.0745945 -8.244242 2.3667774
000030 a0 d1 78 3e 2d 34 42 c0 99 4e 30 40 16 f3 e2 40
       0.24298716 -3.0344346 2.7547972 7.0921736
000040 35 f9 ac 40 f7 74 aa bf e8 3b de 3f 40 e6 01 bf
       5.405421 -1.3316945 1.7362032 -0.5074196
000050 0a ac a9 40 8e 00 d6 c0 7e 58 9c c0 b8 3f 0f 40
       5.302251 -6.6875677 -4.8858023 2.238264
000060 04 f8 ab bf c2 2e 51 40 a3 d5 6d 3f 06 29 3a 40
       -1.3435063 3.2684789 0.9290411 2.9087539
000070 6c f9 3f 3f f6 3e 75 41 85 e6 88 3f 92 3f a4 be
       0.7498996 15.327871 1.0695349 -0.3207975

blocks.0.0.conv_dw.weight_bias f4 [32]
000000 74 f0 8f bf 74 91 f3 bf 0a 26 b6 c0 58 e0 89 3f
       -1.1245255 -1.9028764 -5.6921434 1.0771589
000010 3a 4d 06 41 39 34 2a 41 4a c9 d2 bf ae 45 df 3f
       8.393854 10.63775 -1.6467679 1.744314
000020 cd 77 08 40 d0 b6 23 3f eb 40 c9 bf 60 76 b2 bd
       2.132312 0.63950825 -1.5722936 -0.087139845
000030 45 f2 d1 40 ce 84 b5 bf b8 39 1a 41 ba 31 d5 3f
       6.560824 -1.4181154 9.6390915 1.66558
000040 78 5b bd 40 15 b9 77 40 4e 38 52 40 45 50 83 40
       5.9174156 3.8706715 3.2846866 4.1035485
000050 1a 77 24 40 92 c1 04 3f 3e 43 09 3f a0 b0 5c 3e
       2.5697694 0.51857865 0.5361823 0.21551752
000060 11 e6 99 3e 0a d9 6e 40 e9 41 28 41 ef fb 3e 40
       0.3005834 3.731997 10.516091 2.9841268
000070 39 15 24 41 7c 37 f8 3f c4 b7 b1 40 14 b5 49 3f
       10.255181 1.9391932 5.5536823 0.7879193

blocks.0.0.conv_pw.weight_bias f4 [16]
000000 5e 14 be c0 8f 83 87 40 24 71 47 c2 c8 b6 18 3f
       -5.939986 4.2348094 -49.86049 0.596539
000010 09 c5 58 c0 b8 8b 12 c2 d7 d0 03 c2 88 35 26 41
       -3.387026 -36.636444 -32.953945 10.388069
000020 00 60 55 41 a6 0b af c0 d6 6c 2e 42 2e e8 8b 40
       13.3359375 -5.470172 43.606285 4.3720922
000030 8a 4f de 41 15 8d 94 c1 23 0f 9a c0 a7 03 3c c2
       27.788837 -18.568888 -4.8143477 -47.003567

blocks.1.0.conv_pwl.weight_bias f4 [24]
000000 0e 11 2a 41 84 f7 54 c1 ff 50 80 40 ae 65 4f 41
       10.629164 -13.310429 4.009887 12.962324
000010 7b 4c 0a 40 67 a7 bc c1 92 df 28 c1 30 67 aa 40
       2.160918 -23.58174 -10.554583 5.325096
000020 27 f3 12 41 3c be ca 40 f4 b6 09 41 4e 12 62 c0
       9.184363 6.335722 8.607166 -3.5323672
000030 55 72 b2 40 b8 bf 2d c1 25 61 82 3f 5e 22 e2 bf
       5.5764565 -10.859306 1.0185896 -1.7666738
000040 d3 86 22 c1 6f 4f 52 40 dc 81 dc 40 cd d4 23 41
       -10.157916 3.2860982 6.890852 10.239453
000050 01 02 9b 3f dc c2 de 40 3b aa d8 3f 21 89 94 40
       1.2109987 6.9612865 1.692695 4.6417394

blocks.1.1.conv_pwl.weight_bias f4 [24]
000000 ea 67 c4 40 4b d9 1b 41 a4 b3 a1 bd 40 11 37 bf
       6.137685 9.74055 -0.07895592 -0.71510696
000010 10 8e e3 3f 2f 34 a9 c1 28 ad dc c0 01 4e 00 41
       1.7777729 -21.15048 -6.896137 8.019044
000020 44 49 a3 3f dc 32 ff c0 00 d8 ad 3c db 9b 51 41
       1.2756734 -7.9749584 0.02122116 13.100551
000030 7e e2 e7 40 d2 17 89 c0 8e 05 95 40 92 7b 87 bd
       7.246398 -4.2841578 4.656928 -0.06615366
000040 1c 15 72 40 2e 20 22 c0 76 f6 90 40 61 07 d2 be
       3.7825384 -2.533214 4.5300856 -0.41021255
000050 17 a8 37 c1 73 a7 85 40 58 03 7a be 8e 86 7e 3f
       -11.478538 4.1766906 -0.24415338 0.99424064

blocks.2.0.conv_pwl.weight_bias f4 [40]
000000 26 d1 2d 40 9b 51 fa c1 ae 0d 92 40 09 90 ff 40
       2.7158904 -31.289846 4.56417 7.9863324
000010 26 53 92 c0 a3 df db 40 5f 91 47 be 62 30 12 40
       -4.57265 6.8710494 -0.19489048 2.284203
000020 86 df 31 40 29 75 ac c1 e9 fe d8 c0 7f 18 37 41
       2.7792678 -21.557207 -6.781117 11.4434805
000030 ae e5 40 c1 b1 21 18 c1 6d 50 80 c1 d5 4e 4b c1
       -12.056074 -9.508225 -16.03927 -12.706746
000040 3b 97 da c0 e4 bf 47 41 13 10 23 41 1d db 76 40
       -6.8309608 12.484348 10.191424 3.8571236
000050 da 53 90 41 ae 98 04 41 1b 3d fb 40 77 84 8c c0
       18.040943 8.287275 7.851209 -4.39117
000060 e5 75 7f 40 35 5f 25 c1 e6 61 a5 c0 2d 76 58 40
       3.9915707 -10.335744 -5.1682005 3.3822129
000070 55 d6 53 bf 1a 94 f0 40 48 58 28 c0 69 39 5e 41
       -0.8274892 7.518079 -2.6303883 13.889016
000080 19 40 99 3f b3 e6 f2 3c a1 90 d5 41 31 3e 03 c1
       1.1972686 0.029651022 26.69562 -8.202683
000090 eb d4 50 c1 4c aa e5 40 33 23 cb c0 32 b8 9d bf
       -13.051982 7.177038 -6.348047 -1.2321837

blocks.2.1.conv_pwl.weight_bias f4 [40]
000000 c6 cd 3b 40 79 c1 0c 3f b0 4a d0 3e d2 69 40 3f
       2.9344344 0.54982716 0.40681982 0.7516147
000010 d6 68 c5 bf 3f 82 aa 40 fd d1 b1 c0 e2 40 32 3f
       -1.5422618 5.328399 -5.5568833 0.69630253
000020 7b 4f 18 c0 a0 a0 c7 bf df 81 fa c0 d2 a3 b2 3f
       -2.379851 -1.5595894 -7.8283534 1.3956244
000030 13 66 02 40 56 4f 2a c0 08 8c cd 3f 12 39 fa be
       2.03748 -2.6610923 1.6058359 -0.48871666
000040 00 0c 2f bc b1 8e 27 c0 2a d9 4d bf 78 f0 02 c0
       -0.010684013 -2.6180842 -0.8040949 -2.045927
000050 92 06 bf 3e 80 44 81 3b 72 4d 07 3f 7e 94 11 40
       0.373097 0.0039449334 0.5285255 2.2746882
000060 df 63 d6 be 67 f0 c3 3f 0e a2 00 bf 74 6a 90 3f
       -0.4187307 1.530774 -0.50247276 1.1282487
000070 82 2d 3a be 42 74 74 40 34 93 68 3e 4d 46 05 40
       -0.18181422 3.8195958 0.22712404 2.0824158
000080 37 62 80 bf aa dd d6 3e 41 65 5e c0 07 7b f1 3f
       -1.0029973 0.4196599 -3.47493 1.886567
000090 72 ae 50 c0 f0 c1 5c 3e f5 97 81 bf 32 bb b3 3c
       -3.2606473 0.21558356 -1.0124499 0.021939848
